…
I0524 17:47:42.234968 19129 net.cpp:340] The NetState phase (0) differed from the phase (1) specified by a rule in layer label
I0524 17:47:42.235188 19129 net.cpp:50] Initializing net from parameters: 
state {
  phase: TRAIN
}
layer {
  name: "data"
  type: "Data"
  top: "data"
  include {
    phase: TRAIN
  }
  data_param {
    source: "/home/louis/crfasrnn/crf-rnn-alexnet/train_images_1_lmdb"
    batch_size: 2
    backend: LMDB
  }
}
layer {
  name: "label"
  type: "Data"
  top: "label"
  include {
    phase: TRAIN
  }
  data_param {
    source: "/home/louis/crfasrnn/crf-rnn-alexnet/train_labels_1_lmdb"
    batch_size: 2
    backend: LMDB
  }
}
layer {
  name: "conv1"
  type: "Convolution"
  bottom: "data"
  top: "conv1"
  convolution_param {
    num_output: 96
    pad: 100
    kernel_size: 11
    group: 1
    stride: 4
    weight_filler {
      type: "xavier"
      std: 0.1
    }
    bias_filler {
      type: "constant"
      value: 0.2
    }
  }
}
layer {
  name: "relu1"
  type: "ReLU"
  bottom: "conv1"
  top: "conv1"
}
layer {
  name: "pool1"
  type: "Pooling"
  bottom: "conv1"
  top: "pool1"
  pooling_param {
    pool: MAX
    kernel_size: 3
    stride: 2
  }
}
layer {
  name: "norm1"
  type: "LRN"
  bottom: "pool1"
  top: "norm1"
  lrn_param {
    local_size: 5
    alpha: 0.0001
    beta: 0.75
  }
}
layer {
  name: "conv2"
  type: "Convolution"
  bottom: "norm1"
  top: "conv2"
  convolution_param {
    num_output: 256
    pad: 2
    kernel_size: 5
    group: 2
    stride: 1
    weight_filler {
      type: "xavier"
      std: 0.1
    }
    bias_filler {
      type: "constant"
      value: 0.2
    }
  }
}
layer {
  name: "relu2"
  type: "ReLU"
  bottom: "conv2"
  top: "conv2"
}
layer {
  name: "pool2"
  type: "Pooling"
  bottom: "conv2"
  top: "pool2"
  pooling_param {
    pool: MAX
    kernel_size: 3
    stride: 2
  }
}
layer {
  name: "norm2"
  type: "LRN"
  bottom: "pool2"
  top: "norm2"
  lrn_param {
    local_size: 5
    alpha: 0.0001
    beta: 0.75
  }
}
layer {
  name: "conv3"
  type: "Convolution"
  bottom: "norm2"
  top: "conv3"
  convolution_param {
    num_output: 384
    pad: 1
    kernel_size: 3
    group: 1
    stride: 1
    weight_filler {
      type: "xavier"
      std: 0.1
    }
    bias_filler {
      type: "constant"
      value: 0.2
    }
  }
}
layer {
  name: "relu3"
  type: "ReLU"
  bottom: "conv3"
  top: "conv3"
}
layer {
  name: "conv4"
  type: "Convolution"
  bottom: "conv3"
  top: "conv4"
  convolution_param {
    num_output: 384
    pad: 1
    kernel_size: 3
    group: 2
    stride: 1
    weight_filler {
      type: "xavier"
      std: 0.1
    }
    bias_filler {
      type: "constant"
      value: 0.2
    }
  }
}
layer {
  name: "relu4"
  type: "ReLU"
  bottom: "conv4"
  top: "conv4"
}
layer {
  name: "conv5"
  type: "Convolution"
  bottom: "conv4"
  top: "conv5"
  convolution_param {
    num_output: 256
    pad: 1
    kernel_size: 3
    group: 2
    stride: 1
    weight_filler {
      type: "xavier"
      std: 0.1
    }
    bias_filler {
      type: "constant"
      value: 0.2
    }
  }
}
layer {
  name: "relu5"
  type: "ReLU"
  bottom: "conv5"
  top: "conv5"
}
layer {
  name: "pool5"
  type: "Pooling"
  bottom: "conv5"
  top: "pool5"
  pooling_param {
    pool: MAX
    kernel_size: 3
    stride: 2
  }
}
layer {
  name: "fc6"
  type: "Convolution"
  bottom: "pool5"
  top: "fc6"
  convolution_param {
    num_output: 4096
    pad: 0
    kernel_size: 6
    group: 1
    stride: 1
    weight_filler {
      type: "xavier"
      std: 0.1
    }
    bias_filler {
      type: "constant"
      value: 0.2
    }
  }
}
layer {
  name: "relu6"
  type: "ReLU"
  bottom: "fc6"
  top: "fc6"
}
layer {
  name: "drop6"
  type: "Dropout"
  bottom: "fc6"
  top: "fc6"
  dropout_param {
    dropout_ratio: 0.5
  }
}
layer {
  name: "fc7"
  type: "Convolution"
  bottom: "fc6"
  top: "fc7"
  convolution_param {
    num_output: 4096
    pad: 0
    kernel_size: 1
    group: 1
    stride: 1
    weight_filler {
      type: "xavier"
      std: 0.1
    }
    bias_filler {
      type: "constant"
      value: 0.2
    }
  }
}
layer {
  name: "relu7"
  type: "ReLU"
  bottom: "fc7"
  top: "fc7"
}
layer {
  name: "drop7"
  type: "Dropout"
  bottom: "fc7"
  top: "fc7"
  dropout_param {
    dropout_ratio: 0.5
  }
}
layer {
  name: "score_fr"
  type: "Convolution"
  bottom: "fc7"
  top: "score_fr"
  param {
    lr_mult: 1
    decay_mult: 1
  }
  param {
    lr_mult: 2
    decay_mult: 0
  }
  convolution_param {
    num_output: 2
    pad: 0
    kernel_size: 1
    weight_filler {
      type: "xavier"
      std: 0.1
    }
    bias_filler {
      type: "constant"
      value: 0.2
    }
  }
}
layer {
  name: "upscore"
  type: "Deconvolution"
  bottom: "score_fr"
  top: "upscore"
  param {
    lr_mult: 0
  }
  convolution_param {
    num_output: 2
    bias_term: false
    kernel_size: 63
    stride: 32
  }
}
layer {
  name: "score"
  type: "Crop"
  bottom: "upscore"
  bottom: "data"
  top: "coarse"
}
layer {
  name: "splitting"
  type: "Split"
  bottom: "coarse"
  top: "unary"
  top: "Q0"
}
layer {
  name: "inference1-ft"
  type: "MultiStageMeanfield"
  bottom: "unary"
  bottom: "Q0"
  bottom: "data"
  top: "pred"
  param {
    lr_mult: 10000
  }
  param {
    lr_mult: 10000
  }
  param {
    lr_mult: 1000
  }
  multi_stage_meanfield_param {
    compatibility_mode: POTTS
    threshold: 2
    theta_alpha: 160
    theta_beta: 3
    theta_gamma: 3
    num_iterations: 5
    spatial_filter_weight: 3
    bilateral_filter_weight: 5
  }
}
layer {
  name: "loss"
  type: "SoftmaxWithLoss"
  bottom: "pred"
  bottom: "label"
  top: "loss"
  loss_param {
    normalize: false
  }
}
I0524 17:47:42.235347 19129 layer_factory.hpp:76] Creating layer data
I0524 17:47:42.242727 19129 net.cpp:111] Creating Layer data
I0524 17:47:42.242744 19129 net.cpp:434] data -> data
I0524 17:47:42.244735 19155 db_lmdb.cpp:22] Opened lmdb /home/louis/crfasrnn/crf-rnn-alexnet/train_images_1_lmdb
I0524 17:47:42.250649 19129 data_layer.cpp:44] output data size: 2,1,640,640
I0524 17:47:42.255966 19129 net.cpp:156] Setting up data
I0524 17:47:42.256011 19129 net.cpp:164] Top shape: 2 1 640 640 (819200)
I0524 17:47:42.256019 19129 layer_factory.hpp:76] Creating layer data_data_0_split
I0524 17:47:42.256039 19129 net.cpp:111] Creating Layer data_data_0_split
I0524 17:47:42.256045 19129 net.cpp:478] data_data_0_split <- data
I0524 17:47:42.256053 19129 net.cpp:434] data_data_0_split -> data_data_0_split_0
I0524 17:47:42.256068 19129 net.cpp:434] data_data_0_split -> data_data_0_split_1
I0524 17:47:42.256077 19129 net.cpp:434] data_data_0_split -> data_data_0_split_2
I0524 17:47:42.256098 19129 net.cpp:156] Setting up data_data_0_split
I0524 17:47:42.256105 19129 net.cpp:164] Top shape: 2 1 640 640 (819200)
I0524 17:47:42.256111 19129 net.cpp:164] Top shape: 2 1 640 640 (819200)
I0524 17:47:42.256116 19129 net.cpp:164] Top shape: 2 1 640 640 (819200)
I0524 17:47:42.256121 19129 layer_factory.hpp:76] Creating layer label
I0524 17:47:42.256192 19129 net.cpp:111] Creating Layer label
I0524 17:47:42.256203 19129 net.cpp:434] label -> label
I0524 17:47:42.259464 19157 db_lmdb.cpp:22] Opened lmdb /home/louis/crfasrnn/crf-rnn-alexnet/train_labels_1_lmdb
I0524 17:47:42.260268 19129 data_layer.cpp:44] output data size: 2,1,640,640
I0524 17:47:42.264951 19129 net.cpp:156] Setting up label
I0524 17:47:42.264973 19129 net.cpp:164] Top shape: 2 1 640 640 (819200)
I0524 17:47:42.264981 19129 layer_factory.hpp:76] Creating layer conv1
I0524 17:47:42.265000 19129 net.cpp:111] Creating Layer conv1
I0524 17:47:42.265005 19129 net.cpp:478] conv1 <- data_data_0_split_0
I0524 17:47:42.265017 19129 net.cpp:434] conv1 -> conv1
I0524 17:47:42.265322 19129 net.cpp:156] Setting up conv1
I0524 17:47:42.265338 19129 net.cpp:164] Top shape: 2 96 208 208 (8306688)
I0524 17:47:42.265354 19129 layer_factory.hpp:76] Creating layer relu1
I0524 17:47:42.265365 19129 net.cpp:111] Creating Layer relu1
I0524 17:47:42.265374 19129 net.cpp:478] relu1 <- conv1
I0524 17:47:42.265380 19129 net.cpp:420] relu1 -> conv1 (in-place)
I0524 17:47:42.265394 19129 net.cpp:156] Setting up relu1
I0524 17:47:42.265401 19129 net.cpp:164] Top shape: 2 96 208 208 (8306688)
I0524 17:47:42.265406 19129 layer_factory.hpp:76] Creating layer pool1
I0524 17:47:42.265421 19129 net.cpp:111] Creating Layer pool1
I0524 17:47:42.265429 19129 net.cpp:478] pool1 <- conv1
I0524 17:47:42.265435 19129 net.cpp:434] pool1 -> pool1
I0524 17:47:42.265450 19129 net.cpp:156] Setting up pool1
I0524 17:47:42.265456 19129 net.cpp:164] Top shape: 2 96 104 104 (2076672)
I0524 17:47:42.265461 19129 layer_factory.hpp:76] Creating layer norm1
I0524 17:47:42.265471 19129 net.cpp:111] Creating Layer norm1
I0524 17:47:42.265476 19129 net.cpp:478] norm1 <- pool1
I0524 17:47:42.265486 19129 net.cpp:434] norm1 -> norm1
I0524 17:47:42.265496 19129 net.cpp:156] Setting up norm1
I0524 17:47:42.265504 19129 net.cpp:164] Top shape: 2 96 104 104 (2076672)
I0524 17:47:42.265509 19129 layer_factory.hpp:76] Creating layer conv2
I0524 17:47:42.265521 19129 net.cpp:111] Creating Layer conv2
I0524 17:47:42.265524 19129 net.cpp:478] conv2 <- norm1
I0524 17:47:42.265533 19129 net.cpp:434] conv2 -> conv2
I0524 17:47:42.267614 19156 blocking_queue.cpp:50] Waiting for data
I0524 17:47:42.268342 19129 net.cpp:156] Setting up conv2
I0524 17:47:42.268359 19129 net.cpp:164] Top shape: 2 256 104 104 (5537792)
I0524 17:47:42.268371 19129 layer_factory.hpp:76] Creating layer relu2
I0524 17:47:42.268380 19129 net.cpp:111] Creating Layer relu2
I0524 17:47:42.268385 19129 net.cpp:478] relu2 <- conv2
I0524 17:47:42.268394 19129 net.cpp:420] relu2 -> conv2 (in-place)
I0524 17:47:42.268405 19129 net.cpp:156] Setting up relu2
I0524 17:47:42.268411 19129 net.cpp:164] Top shape: 2 256 104 104 (5537792)
I0524 17:47:42.268416 19129 layer_factory.hpp:76] Creating layer pool2
I0524 17:47:42.268424 19129 net.cpp:111] Creating Layer pool2
I0524 17:47:42.268427 19129 net.cpp:478] pool2 <- conv2
I0524 17:47:42.268434 19129 net.cpp:434] pool2 -> pool2
I0524 17:47:42.268442 19129 net.cpp:156] Setting up pool2
I0524 17:47:42.268451 19129 net.cpp:164] Top shape: 2 256 52 52 (1384448)
I0524 17:47:42.268455 19129 layer_factory.hpp:76] Creating layer norm2
I0524 17:47:42.268462 19129 net.cpp:111] Creating Layer norm2
I0524 17:47:42.268466 19129 net.cpp:478] norm2 <- pool2
I0524 17:47:42.268472 19129 net.cpp:434] norm2 -> norm2
I0524 17:47:42.268486 19129 net.cpp:156] Setting up norm2
I0524 17:47:42.268493 19129 net.cpp:164] Top shape: 2 256 52 52 (1384448)
I0524 17:47:42.268501 19129 layer_factory.hpp:76] Creating layer conv3
I0524 17:47:42.268512 19129 net.cpp:111] Creating Layer conv3
I0524 17:47:42.268518 19129 net.cpp:478] conv3 <- norm2
I0524 17:47:42.268527 19129 net.cpp:434] conv3 -> conv3
I0524 17:47:42.276444 19129 net.cpp:156] Setting up conv3
I0524 17:47:42.276479 19129 net.cpp:164] Top shape: 2 384 52 52 (2076672)
I0524 17:47:42.276491 19129 layer_factory.hpp:76] Creating layer relu3
I0524 17:47:42.276504 19129 net.cpp:111] Creating Layer relu3
I0524 17:47:42.276509 19129 net.cpp:478] relu3 <- conv3
I0524 17:47:42.276516 19129 net.cpp:420] relu3 -> conv3 (in-place)
I0524 17:47:42.276525 19129 net.cpp:156] Setting up relu3
I0524 17:47:42.276530 19129 net.cpp:164] Top shape: 2 384 52 52 (2076672)
I0524 17:47:42.276535 19129 layer_factory.hpp:76] Creating layer conv4
I0524 17:47:42.276546 19129 net.cpp:111] Creating Layer conv4
I0524 17:47:42.276549 19129 net.cpp:478] conv4 <- conv3
I0524 17:47:42.276556 19129 net.cpp:434] conv4 -> conv4
I0524 17:47:42.282006 19129 net.cpp:156] Setting up conv4
I0524 17:47:42.282019 19129 net.cpp:164] Top shape: 2 384 52 52 (2076672)
I0524 17:47:42.282028 19129 layer_factory.hpp:76] Creating layer relu4
I0524 17:47:42.282038 19129 net.cpp:111] Creating Layer relu4
I0524 17:47:42.282043 19129 net.cpp:478] relu4 <- conv4
I0524 17:47:42.282048 19129 net.cpp:420] relu4 -> conv4 (in-place)
I0524 17:47:42.282055 19129 net.cpp:156] Setting up relu4
I0524 17:47:42.282061 19129 net.cpp:164] Top shape: 2 384 52 52 (2076672)
I0524 17:47:42.282065 19129 layer_factory.hpp:76] Creating layer conv5
I0524 17:47:42.282075 19129 net.cpp:111] Creating Layer conv5
I0524 17:47:42.282080 19129 net.cpp:478] conv5 <- conv4
I0524 17:47:42.282086 19129 net.cpp:434] conv5 -> conv5
I0524 17:47:42.285991 19129 net.cpp:156] Setting up conv5
I0524 17:47:42.286005 19129 net.cpp:164] Top shape: 2 256 52 52 (1384448)
I0524 17:47:42.286017 19129 layer_factory.hpp:76] Creating layer relu5
I0524 17:47:42.286029 19129 net.cpp:111] Creating Layer relu5
I0524 17:47:42.286036 19129 net.cpp:478] relu5 <- conv5
I0524 17:47:42.286041 19129 net.cpp:420] relu5 -> conv5 (in-place)
I0524 17:47:42.286048 19129 net.cpp:156] Setting up relu5
I0524 17:47:42.286054 19129 net.cpp:164] Top shape: 2 256 52 52 (1384448)
I0524 17:47:42.286059 19129 layer_factory.hpp:76] Creating layer pool5
I0524 17:47:42.286067 19129 net.cpp:111] Creating Layer pool5
I0524 17:47:42.286077 19129 net.cpp:478] pool5 <- conv5
I0524 17:47:42.286084 19129 net.cpp:434] pool5 -> pool5
I0524 17:47:42.286093 19129 net.cpp:156] Setting up pool5
I0524 17:47:42.286099 19129 net.cpp:164] Top shape: 2 256 26 26 (346112)
I0524 17:47:42.286104 19129 layer_factory.hpp:76] Creating layer fc6
I0524 17:47:42.286114 19129 net.cpp:111] Creating Layer fc6
I0524 17:47:42.286119 19129 net.cpp:478] fc6 <- pool5
I0524 17:47:42.286128 19129 net.cpp:434] fc6 -> fc6
I0524 17:47:42.589956 19129 net.cpp:156] Setting up fc6
I0524 17:47:42.590006 19129 net.cpp:164] Top shape: 2 4096 21 21 (3612672)
I0524 17:47:42.590019 19129 layer_factory.hpp:76] Creating layer relu6
I0524 17:47:42.590032 19129 net.cpp:111] Creating Layer relu6
I0524 17:47:42.590039 19129 net.cpp:478] relu6 <- fc6
I0524 17:47:42.590047 19129 net.cpp:420] relu6 -> fc6 (in-place)
I0524 17:47:42.590059 19129 net.cpp:156] Setting up relu6
I0524 17:47:42.590065 19129 net.cpp:164] Top shape: 2 4096 21 21 (3612672)
I0524 17:47:42.590070 19129 layer_factory.hpp:76] Creating layer drop6
I0524 17:47:42.590077 19129 net.cpp:111] Creating Layer drop6
I0524 17:47:42.590082 19129 net.cpp:478] drop6 <- fc6
I0524 17:47:42.590088 19129 net.cpp:420] drop6 -> fc6 (in-place)
I0524 17:47:42.590097 19129 net.cpp:156] Setting up drop6
I0524 17:47:42.590103 19129 net.cpp:164] Top shape: 2 4096 21 21 (3612672)
I0524 17:47:42.590108 19129 layer_factory.hpp:76] Creating layer fc7
I0524 17:47:42.590119 19129 net.cpp:111] Creating Layer fc7
I0524 17:47:42.590129 19129 net.cpp:478] fc7 <- fc6
I0524 17:47:42.590136 19129 net.cpp:434] fc7 -> fc7
I0524 17:47:42.725378 19129 net.cpp:156] Setting up fc7
I0524 17:47:42.725422 19129 net.cpp:164] Top shape: 2 4096 21 21 (3612672)
I0524 17:47:42.725435 19129 layer_factory.hpp:76] Creating layer relu7
I0524 17:47:42.725446 19129 net.cpp:111] Creating Layer relu7
I0524 17:47:42.725453 19129 net.cpp:478] relu7 <- fc7
I0524 17:47:42.725464 19129 net.cpp:420] relu7 -> fc7 (in-place)
I0524 17:47:42.725474 19129 net.cpp:156] Setting up relu7
I0524 17:47:42.725481 19129 net.cpp:164] Top shape: 2 4096 21 21 (3612672)
I0524 17:47:42.725484 19129 layer_factory.hpp:76] Creating layer drop7
I0524 17:47:42.725492 19129 net.cpp:111] Creating Layer drop7
I0524 17:47:42.725497 19129 net.cpp:478] drop7 <- fc7
I0524 17:47:42.725503 19129 net.cpp:420] drop7 -> fc7 (in-place)
I0524 17:47:42.725512 19129 net.cpp:156] Setting up drop7
I0524 17:47:42.725517 19129 net.cpp:164] Top shape: 2 4096 21 21 (3612672)
I0524 17:47:42.725529 19129 layer_factory.hpp:76] Creating layer score_fr
I0524 17:47:42.725543 19129 net.cpp:111] Creating Layer score_fr
I0524 17:47:42.725548 19129 net.cpp:478] score_fr <- fc7
I0524 17:47:42.725554 19129 net.cpp:434] score_fr -> score_fr
I0524 17:47:42.725651 19129 net.cpp:156] Setting up score_fr
I0524 17:47:42.725661 19129 net.cpp:164] Top shape: 2 2 21 21 (1764)
I0524 17:47:42.725670 19129 layer_factory.hpp:76] Creating layer upscore
I0524 17:47:42.725684 19129 net.cpp:111] Creating Layer upscore
I0524 17:47:42.725690 19129 net.cpp:478] upscore <- score_fr
I0524 17:47:42.725697 19129 net.cpp:434] upscore -> upscore
I0524 17:47:42.725750 19129 net.cpp:156] Setting up upscore
I0524 17:47:42.725759 19129 net.cpp:164] Top shape: 2 2 703 703 (1976836)
I0524 17:47:42.725778 19129 layer_factory.hpp:76] Creating layer score
I0524 17:47:42.725786 19129 net.cpp:111] Creating Layer score
I0524 17:47:42.725791 19129 net.cpp:478] score <- upscore
I0524 17:47:42.725796 19129 net.cpp:478] score <- data_data_0_split_1
I0524 17:47:42.725803 19129 net.cpp:434] score -> coarse
I0524 17:47:42.725847 19129 net.cpp:156] Setting up score
I0524 17:47:42.725854 19129 net.cpp:164] Top shape: 2 2 640 640 (1638400)
I0524 17:47:42.725858 19129 layer_factory.hpp:76] Creating layer splitting
I0524 17:47:42.725867 19129 net.cpp:111] Creating Layer splitting
I0524 17:47:42.725872 19129 net.cpp:478] splitting <- coarse
I0524 17:47:42.725878 19129 net.cpp:434] splitting -> unary
I0524 17:47:42.725885 19129 net.cpp:434] splitting -> Q0
I0524 17:47:42.725893 19129 net.cpp:156] Setting up splitting
I0524 17:47:42.725901 19129 net.cpp:164] Top shape: 2 2 640 640 (1638400)
I0524 17:47:42.725906 19129 net.cpp:164] Top shape: 2 2 640 640 (1638400)
I0524 17:47:42.725911 19129 layer_factory.hpp:76] Creating layer inference1-ft
I0524 17:47:42.725921 19129 net.cpp:111] Creating Layer inference1-ft
I0524 17:47:42.725925 19129 net.cpp:478] inference1-ft <- unary
I0524 17:47:42.725930 19129 net.cpp:478] inference1-ft <- Q0
I0524 17:47:42.725935 19129 net.cpp:478] inference1-ft <- data_data_0_split_2
I0524 17:47:42.725944 19129 net.cpp:434] inference1-ft -> pred
I0524 17:47:42.725952 19129 multi_stage_meanfield.cpp:49] This implementation has not been tested batch size > 1.
I0524 17:47:42.831372 19129 multi_stage_meanfield.cpp:152] MultiStageMeanfieldLayer initialized.
I0524 17:47:42.831418 19129 net.cpp:156] Setting up inference1-ft
I0524 17:47:42.831432 19129 net.cpp:164] Top shape: 2 2 640 640 (1638400)
I0524 17:47:42.831449 19129 layer_factory.hpp:76] Creating layer loss
I0524 17:47:42.831461 19129 net.cpp:111] Creating Layer loss
I0524 17:47:42.831470 19129 net.cpp:478] loss <- pred
I0524 17:47:42.831477 19129 net.cpp:478] loss <- label
I0524 17:47:42.831486 19129 net.cpp:434] loss -> loss
I0524 17:47:42.831501 19129 layer_factory.hpp:76] Creating layer loss
I0524 17:47:42.834447 19129 net.cpp:156] Setting up loss
…
I0524 17:47:42.835522 19129 net.cpp:340] The NetState phase (1) differed from the phase (0) specified by a rule in layer label
I0524 17:47:42.835733 19129 net.cpp:50] Initializing net from parameters: 
state {
  phase: TEST
}
layer {
  name: "data"
  type: "Data"
  top: "data"
  include {
    phase: TEST
  }
  data_param {
    source: "/home/louis/crfasrnn/crf-rnn-alexnet/test_images_1_lmdb"
    batch_size: 1
    backend: LMDB
  }
}
layer {
  name: "label"
  type: "Data"
  top: "label"
  include {
    phase: TEST
  }
  data_param {
    source: "/home/louis/crfasrnn/crf-rnn-alexnet/test_labels_1_lmdb"
    batch_size: 1
    backend: LMDB
  }
}
layer {
  name: "conv1"
  type: "Convolution"
  bottom: "data"
  top: "conv1"
  convolution_param {
    num_output: 96
    pad: 100
    kernel_size: 11
    group: 1
    stride: 4
    weight_filler {
      type: "xavier"
      std: 0.1
    }
    bias_filler {
      type: "constant"
      value: 0.2
    }
  }
}
layer {
  name: "relu1"
  type: "ReLU"
  bottom: "conv1"
  top: "conv1"
}
layer {
  name: "pool1"
  type: "Pooling"
  bottom: "conv1"
  top: "pool1"
  pooling_param {
    pool: MAX
    kernel_size: 3
    stride: 2
  }
}
layer {
  name: "norm1"
  type: "LRN"
  bottom: "pool1"
  top: "norm1"
  lrn_param {
    local_size: 5
    alpha: 0.0001
    beta: 0.75
  }
}
layer {
  name: "conv2"
  type: "Convolution"
  bottom: "norm1"
  top: "conv2"
  convolution_param {
    num_output: 256
    pad: 2
    kernel_size: 5
    group: 2
    stride: 1
    weight_filler {
      type: "xavier"
      std: 0.1
    }
    bias_filler {
      type: "constant"
      value: 0.2
    }
  }
}
layer {
  name: "relu2"
  type: "ReLU"
  bottom: "conv2"
  top: "conv2"
}
layer {
  name: "pool2"
  type: "Pooling"
  bottom: "conv2"
  top: "pool2"
  pooling_param {
    pool: MAX
    kernel_size: 3
    stride: 2
  }
}
layer {
  name: "norm2"
  type: "LRN"
  bottom: "pool2"
  top: "norm2"
  lrn_param {
    local_size: 5
    alpha: 0.0001
    beta: 0.75
  }
}
layer {
  name: "conv3"
  type: "Convolution"
  bottom: "norm2"
  top: "conv3"
  convolution_param {
    num_output: 384
    pad: 1
    kernel_size: 3
    group: 1
    stride: 1
    weight_filler {
      type: "xavier"
      std: 0.1
    }
    bias_filler {
      type: "constant"
      value: 0.2
    }
  }
}
layer {
  name: "relu3"
  type: "ReLU"
  bottom: "conv3"
  top: "conv3"
}
layer {
  name: "conv4"
  type: "Convolution"
  bottom: "conv3"
  top: "conv4"
  convolution_param {
    num_output: 384
    pad: 1
    kernel_size: 3
    group: 2
    stride: 1
    weight_filler {
      type: "xavier"
      std: 0.1
    }
    bias_filler {
      type: "constant"
      value: 0.2
    }
  }
}
layer {
  name: "relu4"
  type: "ReLU"
  bottom: "conv4"
  top: "conv4"
}
layer {
  name: "conv5"
  type: "Convolution"
  bottom: "conv4"
  top: "conv5"
  convolution_param {
    num_output: 256
    pad: 1
    kernel_size: 3
    group: 2
    stride: 1
    weight_filler {
      type: "xavier"
      std: 0.1
    }
    bias_filler {
      type: "constant"
      value: 0.2
    }
  }
}
layer {
  name: "relu5"
  type: "ReLU"
  bottom: "conv5"
  top: "conv5"
}
layer {
  name: "pool5"
  type: "Pooling"
  bottom: "conv5"
  top: "pool5"
  pooling_param {
    pool: MAX
    kernel_size: 3
    stride: 2
  }
}
layer {
  name: "fc6"
  type: "Convolution"
  bottom: "pool5"
  top: "fc6"
  convolution_param {
    num_output: 4096
    pad: 0
    kernel_size: 6
    group: 1
    stride: 1
    weight_filler {
      type: "xavier"
      std: 0.1
    }
    bias_filler {
      type: "constant"
      value: 0.2
    }
  }
}
layer {
  name: "relu6"
  type: "ReLU"
  bottom: "fc6"
  top: "fc6"
}
layer {
  name: "drop6"
  type: "Dropout"
  bottom: "fc6"
  top: "fc6"
  dropout_param {
    dropout_ratio: 0.5
  }
}
layer {
  name: "fc7"
  type: "Convolution"
  bottom: "fc6"
  top: "fc7"
  convolution_param {
    num_output: 4096
    pad: 0
    kernel_size: 1
    group: 1
    stride: 1
    weight_filler {
      type: "xavier"
      std: 0.1
    }
    bias_filler {
      type: "constant"
      value: 0.2
    }
  }
}
layer {
  name: "relu7"
  type: "ReLU"
  bottom: "fc7"
  top: "fc7"
}
layer {
  name: "drop7"
  type: "Dropout"
  bottom: "fc7"
  top: "fc7"
  dropout_param {
    dropout_ratio: 0.5
  }
}
layer {
  name: "score_fr"
  type: "Convolution"
  bottom: "fc7"
  top: "score_fr"
  param {
    lr_mult: 1
    decay_mult: 1
  }
  param {
    lr_mult: 2
    decay_mult: 0
  }
  convolution_param {
    num_output: 2
    pad: 0
    kernel_size: 1
    weight_filler {
      type: "xavier"
      std: 0.1
    }
    bias_filler {
      type: "constant"
      value: 0.2
    }
  }
}
layer {
  name: "upscore"
  type: "Deconvolution"
  bottom: "score_fr"
  top: "upscore"
  param {
    lr_mult: 0
  }
  convolution_param {
    num_output: 2
    bias_term: false
    kernel_size: 63
    stride: 32
  }
}
layer {
  name: "score"
  type: "Crop"
  bottom: "upscore"
  bottom: "data"
  top: "coarse"
}
layer {
  name: "splitting"
  type: "Split"
  bottom: "coarse"
  top: "unary"
  top: "Q0"
}
layer {
  name: "inference1-ft"
  type: "MultiStageMeanfield"
  bottom: "unary"
  bottom: "Q0"
  bottom: "data"
  top: "pred"
  param {
    lr_mult: 10000
  }
  param {
    lr_mult: 10000
  }
  param {
    lr_mult: 1000
  }
  multi_stage_meanfield_param {
    compatibility_mode: POTTS
    threshold: 2
    theta_alpha: 160
    theta_beta: 3
    theta_gamma: 3
    num_iterations: 5
    spatial_filter_weight: 3
    bilateral_filter_weight: 5
  }
}
layer {
  name: "loss"
  type: "SoftmaxWithLoss"
  bottom: "pred"
  bottom: "label"
  top: "loss"
  loss_param {
    normalize: false
  }
}
I0524 17:47:42.835862 19129 layer_factory.hpp:76] Creating layer data
I0524 17:47:42.835957 19129 net.cpp:111] Creating Layer data
I0524 17:47:42.835968 19129 net.cpp:434] data -> data
I0524 17:47:42.837975 19159 db_lmdb.cpp:22] Opened lmdb /home/louis/crfasrnn/crf-rnn-alexnet/test_images_1_lmdb
I0524 17:47:42.843914 19129 data_layer.cpp:44] output data size: 1,1,640,640
I0524 17:47:42.846552 19129 net.cpp:156] Setting up data
I0524 17:47:42.846570 19129 net.cpp:164] Top shape: 1 1 640 640 (409600)
I0524 17:47:42.846578 19129 layer_factory.hpp:76] Creating layer data_data_0_split
I0524 17:47:42.846588 19129 net.cpp:111] Creating Layer data_data_0_split
I0524 17:47:42.846593 19129 net.cpp:478] data_data_0_split <- data
I0524 17:47:42.846602 19129 net.cpp:434] data_data_0_split -> data_data_0_split_0
I0524 17:47:42.846611 19129 net.cpp:434] data_data_0_split -> data_data_0_split_1
I0524 17:47:42.846619 19129 net.cpp:434] data_data_0_split -> data_data_0_split_2
I0524 17:47:42.846628 19129 net.cpp:156] Setting up data_data_0_split
I0524 17:47:42.846634 19129 net.cpp:164] Top shape: 1 1 640 640 (409600)
I0524 17:47:42.846640 19129 net.cpp:164] Top shape: 1 1 640 640 (409600)
I0524 17:47:42.846647 19129 net.cpp:164] Top shape: 1 1 640 640 (409600)
I0524 17:47:42.846652 19129 layer_factory.hpp:76] Creating layer label
I0524 17:47:42.846698 19129 net.cpp:111] Creating Layer label
I0524 17:47:42.846707 19129 net.cpp:434] label -> label
I0524 17:47:42.850584 19161 db_lmdb.cpp:22] Opened lmdb /home/louis/crfasrnn/crf-rnn-alexnet/test_labels_1_lmdb
I0524 17:47:42.851498 19129 data_layer.cpp:44] output data size: 1,1,640,640
I0524 17:47:42.854418 19129 net.cpp:156] Setting up label
I0524 17:47:42.854437 19129 net.cpp:164] Top shape: 1 1 640 640 (409600)
I0524 17:47:42.854444 19129 layer_factory.hpp:76] Creating layer conv1
I0524 17:47:42.854459 19129 net.cpp:111] Creating Layer conv1
I0524 17:47:42.854465 19129 net.cpp:478] conv1 <- data_data_0_split_0
I0524 17:47:42.854475 19129 net.cpp:434] conv1 -> conv1
I0524 17:47:42.854636 19129 net.cpp:156] Setting up conv1
I0524 17:47:42.854648 19129 net.cpp:164] Top shape: 1 96 208 208 (4153344)
I0524 17:47:42.854665 19129 layer_factory.hpp:76] Creating layer relu1
I0524 17:47:42.854676 19129 net.cpp:111] Creating Layer relu1
I0524 17:47:42.854681 19129 net.cpp:478] relu1 <- conv1
I0524 17:47:42.854691 19129 net.cpp:420] relu1 -> conv1 (in-place)
I0524 17:47:42.854699 19129 net.cpp:156] Setting up relu1
I0524 17:47:42.854707 19129 net.cpp:164] Top shape: 1 96 208 208 (4153344)
I0524 17:47:42.854712 19129 layer_factory.hpp:76] Creating layer pool1
I0524 17:47:42.854722 19129 net.cpp:111] Creating Layer pool1
I0524 17:47:42.854725 19129 net.cpp:478] pool1 <- conv1
I0524 17:47:42.854732 19129 net.cpp:434] pool1 -> pool1
I0524 17:47:42.854743 19129 net.cpp:156] Setting up pool1
I0524 17:47:42.854750 19129 net.cpp:164] Top shape: 1 96 104 104 (1038336)
I0524 17:47:42.854755 19129 layer_factory.hpp:76] Creating layer norm1
I0524 17:47:42.854764 19129 net.cpp:111] Creating Layer norm1
I0524 17:47:42.854768 19129 net.cpp:478] norm1 <- pool1
I0524 17:47:42.854775 19129 net.cpp:434] norm1 -> norm1
I0524 17:47:42.854785 19129 net.cpp:156] Setting up norm1
I0524 17:47:42.854792 19129 net.cpp:164] Top shape: 1 96 104 104 (1038336)
I0524 17:47:42.854796 19129 layer_factory.hpp:76] Creating layer conv2
I0524 17:47:42.854804 19129 net.cpp:111] Creating Layer conv2
I0524 17:47:42.854809 19129 net.cpp:478] conv2 <- norm1
I0524 17:47:42.854816 19129 net.cpp:434] conv2 -> conv2
I0524 17:47:42.857125 19129 net.cpp:156] Setting up conv2
I0524 17:47:42.857139 19129 net.cpp:164] Top shape: 1 256 104 104 (2768896)
I0524 17:47:42.857149 19129 layer_factory.hpp:76] Creating layer relu2
I0524 17:47:42.857161 19129 net.cpp:111] Creating Layer relu2
I0524 17:47:42.857165 19129 net.cpp:478] relu2 <- conv2
I0524 17:47:42.857172 19129 net.cpp:420] relu2 -> conv2 (in-place)
I0524 17:47:42.857179 19129 net.cpp:156] Setting up relu2
I0524 17:47:42.857185 19129 net.cpp:164] Top shape: 1 256 104 104 (2768896)
I0524 17:47:42.857190 19129 layer_factory.hpp:76] Creating layer pool2
I0524 17:47:42.857198 19129 net.cpp:111] Creating Layer pool2
I0524 17:47:42.857203 19129 net.cpp:478] pool2 <- conv2
I0524 17:47:42.857209 19129 net.cpp:434] pool2 -> pool2
I0524 17:47:42.857218 19129 net.cpp:156] Setting up pool2
I0524 17:47:42.857224 19129 net.cpp:164] Top shape: 1 256 52 52 (692224)
I0524 17:47:42.857229 19129 layer_factory.hpp:76] Creating layer norm2
I0524 17:47:42.857237 19129 net.cpp:111] Creating Layer norm2
I0524 17:47:42.857242 19129 net.cpp:478] norm2 <- pool2
I0524 17:47:42.857249 19129 net.cpp:434] norm2 -> norm2
I0524 17:47:42.857257 19129 net.cpp:156] Setting up norm2
I0524 17:47:42.857264 19129 net.cpp:164] Top shape: 1 256 52 52 (692224)
I0524 17:47:42.857267 19129 layer_factory.hpp:76] Creating layer conv3
I0524 17:47:42.857275 19129 net.cpp:111] Creating Layer conv3
I0524 17:47:42.857280 19129 net.cpp:478] conv3 <- norm2
I0524 17:47:42.857288 19129 net.cpp:434] conv3 -> conv3
I0524 17:47:42.864732 19129 net.cpp:156] Setting up conv3
I0524 17:47:42.864747 19129 net.cpp:164] Top shape: 1 384 52 52 (1038336)
I0524 17:47:42.864758 19129 layer_factory.hpp:76] Creating layer relu3
I0524 17:47:42.864766 19129 net.cpp:111] Creating Layer relu3
I0524 17:47:42.864771 19129 net.cpp:478] relu3 <- conv3
I0524 17:47:42.864780 19129 net.cpp:420] relu3 -> conv3 (in-place)
I0524 17:47:42.864789 19129 net.cpp:156] Setting up relu3
I0524 17:47:42.864794 19129 net.cpp:164] Top shape: 1 384 52 52 (1038336)
I0524 17:47:42.864799 19129 layer_factory.hpp:76] Creating layer conv4
I0524 17:47:42.864807 19129 net.cpp:111] Creating Layer conv4
I0524 17:47:42.864812 19129 net.cpp:478] conv4 <- conv3
I0524 17:47:42.864820 19129 net.cpp:434] conv4 -> conv4
I0524 17:47:42.870687 19129 net.cpp:156] Setting up conv4
I0524 17:47:42.870699 19129 net.cpp:164] Top shape: 1 384 52 52 (1038336)
I0524 17:47:42.870708 19129 layer_factory.hpp:76] Creating layer relu4
I0524 17:47:42.870717 19129 net.cpp:111] Creating Layer relu4
I0524 17:47:42.870721 19129 net.cpp:478] relu4 <- conv4
I0524 17:47:42.870728 19129 net.cpp:420] relu4 -> conv4 (in-place)
I0524 17:47:42.870734 19129 net.cpp:156] Setting up relu4
I0524 17:47:42.870740 19129 net.cpp:164] Top shape: 1 384 52 52 (1038336)
I0524 17:47:42.870745 19129 layer_factory.hpp:76] Creating layer conv5
I0524 17:47:42.870753 19129 net.cpp:111] Creating Layer conv5
I0524 17:47:42.870757 19129 net.cpp:478] conv5 <- conv4
I0524 17:47:42.870764 19129 net.cpp:434] conv5 -> conv5
I0524 17:47:42.874658 19129 net.cpp:156] Setting up conv5
I0524 17:47:42.874671 19129 net.cpp:164] Top shape: 1 256 52 52 (692224)
I0524 17:47:42.874683 19129 layer_factory.hpp:76] Creating layer relu5
I0524 17:47:42.874693 19129 net.cpp:111] Creating Layer relu5
I0524 17:47:42.874698 19129 net.cpp:478] relu5 <- conv5
I0524 17:47:42.874707 19129 net.cpp:420] relu5 -> conv5 (in-place)
I0524 17:47:42.874716 19129 net.cpp:156] Setting up relu5
I0524 17:47:42.874722 19129 net.cpp:164] Top shape: 1 256 52 52 (692224)
I0524 17:47:42.874725 19129 layer_factory.hpp:76] Creating layer pool5
I0524 17:47:42.874732 19129 net.cpp:111] Creating Layer pool5
I0524 17:47:42.874737 19129 net.cpp:478] pool5 <- conv5
I0524 17:47:42.874742 19129 net.cpp:434] pool5 -> pool5
I0524 17:47:42.874752 19129 net.cpp:156] Setting up pool5
I0524 17:47:42.874763 19129 net.cpp:164] Top shape: 1 256 26 26 (173056)
I0524 17:47:42.874768 19129 layer_factory.hpp:76] Creating layer fc6
I0524 17:47:42.874775 19129 net.cpp:111] Creating Layer fc6
I0524 17:47:42.874779 19129 net.cpp:478] fc6 <- pool5
I0524 17:47:42.874785 19129 net.cpp:434] fc6 -> fc6
I0524 17:47:43.100980 19129 net.cpp:156] Setting up fc6
I0524 17:47:43.101043 19129 net.cpp:164] Top shape: 1 4096 21 21 (1806336)
I0524 17:47:43.101056 19129 layer_factory.hpp:76] Creating layer relu6
I0524 17:47:43.101068 19129 net.cpp:111] Creating Layer relu6
I0524 17:47:43.101073 19129 net.cpp:478] relu6 <- fc6
I0524 17:47:43.101083 19129 net.cpp:420] relu6 -> fc6 (in-place)
I0524 17:47:43.101091 19129 net.cpp:156] Setting up relu6
I0524 17:47:43.101096 19129 net.cpp:164] Top shape: 1 4096 21 21 (1806336)
I0524 17:47:43.101115 19129 layer_factory.hpp:76] Creating layer drop6
I0524 17:47:43.101124 19129 net.cpp:111] Creating Layer drop6
I0524 17:47:43.101126 19129 net.cpp:478] drop6 <- fc6
I0524 17:47:43.101132 19129 net.cpp:420] drop6 -> fc6 (in-place)
I0524 17:47:43.101140 19129 net.cpp:156] Setting up drop6
I0524 17:47:43.101145 19129 net.cpp:164] Top shape: 1 4096 21 21 (1806336)
I0524 17:47:43.101148 19129 layer_factory.hpp:76] Creating layer fc7
I0524 17:47:43.101156 19129 net.cpp:111] Creating Layer fc7
I0524 17:47:43.101160 19129 net.cpp:478] fc7 <- fc6
I0524 17:47:43.101164 19129 net.cpp:434] fc7 -> fc7
I0524 17:47:43.199029 19129 net.cpp:156] Setting up fc7
I0524 17:47:43.199093 19129 net.cpp:164] Top shape: 1 4096 21 21 (1806336)
I0524 17:47:43.199110 19129 layer_factory.hpp:76] Creating layer relu7
I0524 17:47:43.199121 19129 net.cpp:111] Creating Layer relu7
I0524 17:47:43.199126 19129 net.cpp:478] relu7 <- fc7
I0524 17:47:43.199138 19129 net.cpp:420] relu7 -> fc7 (in-place)
I0524 17:47:43.199147 19129 net.cpp:156] Setting up relu7
I0524 17:47:43.199152 19129 net.cpp:164] Top shape: 1 4096 21 21 (1806336)
I0524 17:47:43.199156 19129 layer_factory.hpp:76] Creating layer drop7
I0524 17:47:43.199162 19129 net.cpp:111] Creating Layer drop7
I0524 17:47:43.199167 19129 net.cpp:478] drop7 <- fc7
I0524 17:47:43.199187 19129 net.cpp:420] drop7 -> fc7 (in-place)
I0524 17:47:43.199194 19129 net.cpp:156] Setting up drop7
I0524 17:47:43.199199 19129 net.cpp:164] Top shape: 1 4096 21 21 (1806336)
I0524 17:47:43.199203 19129 layer_factory.hpp:76] Creating layer score_fr
I0524 17:47:43.199211 19129 net.cpp:111] Creating Layer score_fr
I0524 17:47:43.199214 19129 net.cpp:478] score_fr <- fc7
I0524 17:47:43.199220 19129 net.cpp:434] score_fr -> score_fr
I0524 17:47:43.199293 19129 net.cpp:156] Setting up score_fr
I0524 17:47:43.199301 19129 net.cpp:164] Top shape: 1 2 21 21 (882)
I0524 17:47:43.199306 19129 layer_factory.hpp:76] Creating layer upscore
I0524 17:47:43.199312 19129 net.cpp:111] Creating Layer upscore
I0524 17:47:43.199316 19129 net.cpp:478] upscore <- score_fr
I0524 17:47:43.199323 19129 net.cpp:434] upscore -> upscore
I0524 17:47:43.199389 19129 net.cpp:156] Setting up upscore
I0524 17:47:43.199398 19129 net.cpp:164] Top shape: 1 2 703 703 (988418)
I0524 17:47:43.199409 19129 layer_factory.hpp:76] Creating layer score
I0524 17:47:43.199416 19129 net.cpp:111] Creating Layer score
I0524 17:47:43.199420 19129 net.cpp:478] score <- upscore
I0524 17:47:43.199425 19129 net.cpp:478] score <- data_data_0_split_1
I0524 17:47:43.199430 19129 net.cpp:434] score -> coarse
I0524 17:47:43.199467 19129 net.cpp:156] Setting up score
I0524 17:47:43.199491 19129 net.cpp:164] Top shape: 1 2 640 640 (819200)
I0524 17:47:43.199496 19129 layer_factory.hpp:76] Creating layer splitting
I0524 17:47:43.199502 19129 net.cpp:111] Creating Layer splitting
I0524 17:47:43.199506 19129 net.cpp:478] splitting <- coarse
I0524 17:47:43.199512 19129 net.cpp:434] splitting -> unary
I0524 17:47:43.199518 19129 net.cpp:434] splitting -> Q0
I0524 17:47:43.199524 19129 net.cpp:156] Setting up splitting
I0524 17:47:43.199530 19129 net.cpp:164] Top shape: 1 2 640 640 (819200)
I0524 17:47:43.199534 19129 net.cpp:164] Top shape: 1 2 640 640 (819200)
I0524 17:47:43.199538 19129 layer_factory.hpp:76] Creating layer inference1-ft
I0524 17:47:43.199548 19129 net.cpp:111] Creating Layer inference1-ft
I0524 17:47:43.199553 19129 net.cpp:478] inference1-ft <- unary
I0524 17:47:43.199556 19129 net.cpp:478] inference1-ft <- Q0
I0524 17:47:43.199561 19129 net.cpp:478] inference1-ft <- data_data_0_split_2
I0524 17:47:43.199568 19129 net.cpp:434] inference1-ft -> pred
I0524 17:47:43.199576 19129 multi_stage_meanfield.cpp:49] This implementation has not been tested batch size > 1.
I0524 17:47:43.274016 19129 multi_stage_meanfield.cpp:152] MultiStageMeanfieldLayer initialized.
I0524 17:47:43.274073 19129 net.cpp:156] Setting up inference1-ft
I0524 17:47:43.274086 19129 net.cpp:164] Top shape: 1 2 640 640 (819200)
I0524 17:47:43.274098 19129 layer_factory.hpp:76] Creating layer loss
I0524 17:47:43.274108 19129 net.cpp:111] Creating Layer loss
I0524 17:47:43.274114 19129 net.cpp:478] loss <- pred
I0524 17:47:43.274137 19129 net.cpp:478] loss <- label
I0524 17:47:43.274144 19129 net.cpp:434] loss -> loss
I0524 17:47:43.274157 19129 layer_factory.hpp:76] Creating layer loss
I0524 17:47:43.275565 19129 net.cpp:156] Setting up loss
…
